…
          "base_uri": "https://localhost:8080/"
        },
        "id": "CFCuyEUThnIK",
        "outputId": "c742f8b4-6c66-4c48-dd32-1d29394f030f"
      },
      "execution_count": 13,
      "outputs": [
        {
          "output_type": "stream",
          "name": "stdout",
          "text": [
            "Model: \"sequential\"\n",
            "_________________________________________________________________\n",
            " Layer (type)                Output Shape              Param #   \n",
            "=================================================================\n",
            " conv2d (Conv2D)             (None, 248, 248, 32)      896       \n",
            "                                                                 \n",
            " max_pooling2d (MaxPooling2  (None, 247, 247, 32)      0         \n",
            " D)                                                              \n",
            "                                                                 \n",
            " conv2d_1 (Conv2D)           (None, 245, 245, 64)      18496     \n",
            "                                                                 \n",
            " max_pooling2d_1 (MaxPoolin  (None, 122, 122, 64)      0         \n",
            " g2D)                                                            \n",
            "                                                                 \n",
            " conv2d_2 (Conv2D)           (None, 120, 120, 128)     73856     \n",
            "                                                                 \n",
            " max_pooling2d_2 (MaxPoolin  (None, 60, 60, 128)       0         \n",
            " g2D)                                                            \n",
            "                                                                 \n",
            " flatten (Flatten)           (None, 460800)            0         \n",
            "                                                                 \n",
            " dropout (Dropout)           (None, 460800)            0         \n",
            "                                                                 \n",
            " dense (Dense)               (None, 500)               230400500 \n",
            "                                                                 \n",
            " dropout_1 (Dropout)         (None, 500)               0         \n",
            "                                                                 \n",
            " dense_1 (Dense)             (None, 4)                 2004      \n",
            "                                                                 \n",
            "=================================================================\n",
            "Total params: 230495752 (879.27 MB)\n",
            "Trainable params: 230495752 (879.27 MB)\n",
            "Non-trainable params: 0 (0.00 Byte)\n",
            "_________________________________________________________________\n"
…
